…
ight', 'aggregator.blocks.0.norm1.bias', 'aggregator.blocks.0.pwff.fc1.weight', 'aggregator.blocks.0.pwff.fc1.bias', 'aggregator.blocks.0.pwff.fc2.weight', 'aggregator.blocks.0.pwff.fc2.bias', 'aggregator.blocks.0.norm2.weight', 'aggregator.blocks.0.norm2.bias', 'aggregator_norm.weight', 'aggregator_norm.bias', 'head.weight', 'head.bias']
            Expected missing keys: []
            
Unexpected keys when loading pretrained weights: []
            
Loaded pretrained weights.
Loaded anchor cls token
Initialized classifier: vit_b16
VisionTransformer(
  (model): ViTGLSim(
    (patch_embedding): Conv2d(3, 768, kernel_size=(16, 16), stride=(16, 16))
    (positional_embedding): LearnedPositionalEmbedding1D()
    (encoder): Transformer(
      (blocks): ModuleList(
        (0-11): 12 x BlockVanilla(
          (attn): AllYouNeedAttention(
            (proj_q): Linear(in_features=768, out_features=768, bias=True)
            (proj_k): Linear(in_features=768, out_features=768, bias=True)
            (proj_v): Linear(in_features=768, out_features=768, bias=True)
            (drop): Dropout(p=0.0, inplace=False)
          )
          (proj): Linear(in_features=768, out_features=768, bias=True)
          (norm1): LayerNorm((768,), eps=1e-12, elementwise_affine=True)
          (pwff): PositionWiseFeedForward(
            (fc1): Linear(in_features=768, out_features=3072, bias=True)
            (fc2): Linear(in_features=3072, out_features=768, bias=True)
          )
          (norm2): LayerNorm((768,), eps=1e-12, elementwise_affine=True)
          (drop): DropPath(drop_prob=0.100)
        )
      )
    )
    (encoder_norm): LayerNorm((768,), eps=1e-12, elementwise_affine=True)
    (reducer): Identity()
    (aggregator): Transformer(
      (blocks): ModuleList(
        (0): BlockVanilla(
          (attn): AllYouNeedAttention(
            (proj_q): Linear(in_features=768, out_features=768, bias=True)
            (proj_k): Linear(in_features=768, out_features=768, bias=True)
            (proj_v): Linear(in_features=768, out_features=768, bias=True)
            (drop): Dropout(p=0.0, inplace=False)
          )
          (proj): Linear(in_features=768, out_features=768, bias=True)
          (norm1): LayerNorm((768,), eps=1e-12, elementwise_affine=True)
          (pwff): PositionWiseFeedForward(
            (fc1): Linear(in_features=768, out_features=3072, bias=True)
            (fc2): Linear(in_features=3072, out_features=768, bias=True)
          )
          (norm2): LayerNorm((768,), eps=1e-12, elementwise_affine=True)
          (drop): DropPath(drop_prob=0.100)
        )
      )
    )
    (aggregator_norm): LayerNorm((768,), eps=1e-12, elementwise_affine=True)
    (head): Linear(in_features=768, out_features=200, bias=True)
  )
) {'model_name': 'vit_b16', 'debugging': False, 'test_flip': False, 'image_size': 224, 'patch_size': (16, 16), 'load_fc_layer': True, 'classifier': 'cls', 'num_classes': 200, 'num_channels': 3, 'shared_patchifier': False, 'classifier_aux': None, 'head_norm': False, 'head_act': False, 'head_dropout_all': False, 'head_dropout_prob': 0, 'anchor_size':
…
